surrogate_policy.pth (torch, 109857 bytes, 11 tensors)

net.0.weight f4 [128, 6]
00000000: 2ee1 3abe 4f62 3abe 6e80 123c a662 ae3e
00000010: cb05 8d3e f55e d1bd 564d 163e ddb0 053d
00000020: bb96 813d b832 79be 6dee 87be 9841 d6bc
00000030: aa74 2f3e 3f8b 793e 7962 8bbe 0b53 d3bd
00000040: 9714 5ebe 6893 033e 0d75 0bbe f875 96be
00000050: 3c05 b63e f169 0f3e f475 8dbd c62d f93d
00000060: 4711 123e 9c3c bbbe 53f4 2fbe f840 af3e
00000070: bff2 49bc 81af 19bd fccc 30be 0032 9ebe
00000080: 874c 983e fd98 a33c bb4c 9c3d 5f71 a5be
00000090: 0a20 8dbe 8382 083c fbb7 2fbe d759 013d
000000a0: ad1e 8bbc 2032 7bbe d702 f23d f32f 3fbe
000000b0: f957 d93e 1283 213e 688e d43e 26a0 b8be
000000c0: c955 d2bd 7790 673e 66a1 a2be ab43 4ebe
000000d0: 716b b83e ccf9 bbbd 46c3 103e b557 a9be
000000e0: 7706 0ebd fecd 38be fdbb d9bd d2e8 85bd
000000f0: 702f 85be d6f7 e23e c009 dc3d a4b6 1d3e
00000100: ebf1 02be 89bf 9cbc 6f50 bf3e 4517 863e
00000110: a795 a0be 5e9a 963d 4dc2 3cbe f302 d2bd
00000120: ce00 16be dea9 2abe d7ed 90be d86f 263d
00000130: 73ab 8abe 20b2 983e 8ee5 903e 6659 c2be
00000140: a546 8cbe 5c79 aa3e e69d 013d 15a3 81be
00000150: cb37 273b 8aa5 773e 131c 9b3e 8360 63be
00000160: facc ac3e 3798 c73c 4167 483d 9b56 e4bc
00000170: 9019 f03e a8ea 6ebd 1594 57be 585b d03e
00000180: 9950 b03d 7201 9abe a20e 98bc 912d 423d
00000190: 7ac7 933e 5715 b43c a77a 903e 419a 4e3e
000001a0: e425 bc3e 7634 a63d 0966 85be 74ad 903d
000001b0: f964 6c3c 969a d13e 654b 83bd 1911 8c3e
000001c0: ee95 7bbe 260a acbe 3246 a83e 4348 8f3e
000001d0: b8cf 80be f285 1ebe 3404 9e3d a4cb e1bc
000001e0: 4d9c 19be 9e38 673e d806 71be 5984 2abe
000001f0: 6a8b e83d e293 b83e bae3 d83d e848 b2bc
00000200: 1879 3bbd 8e55 4dbd 8506 0e3e 449c aa3e
00000210: d768 963d cd09 84bd 410b b0be 573c 8abe
00000220: 8c4a 2b3e 71f8 b4be 3d28 d33d 3aff 253e
00000230: 7c24 ff3e b3b0 db3e 91c6 3abe 296a 0fbe
00000240: 2f96 db3e 2722 933e 0595 92bd 9c83 d83e
00000250: 722c 82be f490 8e3e d677 cbbe 96e1 c93e
00000260: 7e15 6ebe ab70 a83e 8c5d 28bd a23e b43e
00000270: 2ab2 833e 4c69 17be ef3b 5f3e 5574 523e
00000280: 62cc 9d3c ceef d33e bf60 9bbd 7bf2 9b3e
00000290: 96a8 493e 19ba 0b3e 38ce 9bbe 12b5 c43c
000002a0: 5f09 87be 88d2 abbe 1c9b cf3e 6082 523e
000002b0: b3e6 e53d d07a b23d 499c 033d 34d6 113e
000002c0: a434 d83e cd56 a7be 1546 a53e c00b 9ebe
000002d0: 98e7 3b3e 133f 983e 8797 8fbd 4701 e1be
000002e0: a633 4b3e e6db 5fbe c5fd 9abe eafc 99be
000002f0: bda2 5b3e 193e 6c3d ca5c 843e 14ac 8fbd
00000300: 058a af3e 19b3 7ebd 57e8 a33e dc02 243d
00000310: c564 b5be b3ce 603e e062 d13d f748 883e
00000320: 84c5 bcbe f298 6ebd 039e 76bd 9695 c8be
00000330: 361b ee3e a7d4 45bd 44ff d53e 1e69 aabd
00000340: 894e 18be a278 ddbd c4ff 093d d58d 64bd
00000350: 5a2a 56be ce00 ae3d 1d17 a4be 17ad 753e
00000360: cf36 5b3e 0311 aabe 1bf2 23be 5914 8e3e
00000370: 6ec3 93be 5054 d63e bc70 cf3c 8c69 48bd
00000380: 32bd b53b f828 e63d 0ae5 633e c446 7b3a
00000390: 4f52 d8bd ba68 85be acb0 83be f64d d23e
000003a0: 5c54 46be 106a a73e 0a83 683c 4c38 8dbc
000003b0: 8949 48bd 94a5 8fbd 0153 27bd f321 9cbe
000003c0: 8bed 84be cb44 b43e 0379 373e 512b a0be
000003d0: 3b10 0dbe 50f1 63be 3760 3dbd efec f1bc
000003e0: 5573 0bbc a210 9c3e 7b23 823e 2f89 1fbe
000003f0: faf0 45be eaaa a83e ccb7 eb3e f17b d63e
-0.18249962 -0.18201564 0.008941753 0.34059638 0.27543482 -0.1022319 0.14677939 0.032639373
0.06327578 -0.24335754 -0.26549092 -0.026154324 0.17134348 0.24369524 -0.27223566 -0.103185736
-0.21687542 0.128492 -0.1361887 -0.29386878 0.3555087 0.14005257 -0.069072634 0.12166934
0.14264403 -0.3656968 -0.17183046 0.34229255 -0.012325942 -0.03752089 -0.17265695 -0.30897522
0.29745886 0.019970411 0.07631823 -0.32313058 -0.27563506 0.008331898 -0.17160027 0.03157982
-0.0169824 -0.2453084 0.11816948 -0.18670635 0.4244993 0.15772656 0.41514897 -0.36059684
-0.102702685 0.22613703 -0.31763762 -0.20143001 0.3601947 -0.09178504 0.14136991 -0.33074728
-0.034674134 -0.1804733 -0.10631559 -0.065385476 -0.26012754 0.4432971 0.10744047 0.15401703
-0.12787597 -0.0191343 0.37366053 0.26189628 -0.31364176 0.07353662 -0.18433495 -0.10254469
-0.14648744 -0.16666362 -0.28306457 0.040634006 -0.2708393 0.298234 0.28300136 -0.3795883
-0.27397648 0.33295715 0.031644724 -0.25319734 0.0025515433 0.24184242 0.30294856 -0.22204785
0.33750135 0.024364574 0.048926596 -0.027873328 0.46894503 -0.058329254 -0.21052583 0.4069469
0.08609123 -0.30079228 -0.018561665 0.047406737 0.28863126 0.021982832 0.28218576 0.2017603
0.36747658 0.08115475 -0.2605441 0.070643336 0.014428371 0.40938252 -0.06410865 0.27356794
-0.24568912 -0.33601493 0.32866055 0.2798482 -0.25158477 -0.15480784 0.077156454 -0.027562924
-0.1500103 0.22580191 -0.23537767 -0.16652049 0.11354716 0.36050326 0.105903104 -0.02176328
-0.04576978 -0.05013042 0.13869675 0.33322346 0.07344215 -0.06447182 -0.34383586 -0.2699916
0.16727656 -0.35345796 0.10310409 0.16210642 0.49832523 0.42908248 -0.1823981 -0.1400534
0.42888018 0.28736994 -0.071573295 0.4228791 -0.25424534 0.27844965 -0.39739865 0.3942992
-0.23250386 0.3289846 -0.04110484 0.35204035 0.25721866 -0.14786261 0.21800207 0.2055219
0.019262496 0.41393894 -0.07586812 0.30458435 0.19693217 0.1364521 -0.3043077 0.024012122
-0.26374337 -0.3355906 0.40548027 0.20557547 0.11225643 0.08714831 0.032131467 0.14241868
0.42227662 -0.3268341 0.3228003 -0.3086834 0.18350065 0.29735622 -0.070113234 -0.43946287
0.19843921 -0.21861228 -0.30271736 -0.3007577 0.21448798 0.05767641 0.25852042 -0.07015243
0.34284988 -0.06218252 0.320132 0.04004179 -0.35428444 0.2195385 0.10223937 0.26618168
-0.36869442 -0.05825133 -0.060209285 -0.39176625 0.46505135 -0.048298504 0.41796315 -0.08320831
-0.14873709 -0.108140245 0.033691183 -0.055799324 -0.20914593 0.08496247 -0.32048884 0.2399181
0.21407627 -0.33216104 -0.16010325 0.277499 -0.2886004 0.418612 0.02532231 -0.048928782
0.0055462355 0.11238283 0.2225534 0.0009585435 -0.10562574 -0.26056463 -0.25720727 0.41075104
-0.19368118 0.32698107 0.014191398 -0.017238759 -0.048898254 -0.070140034 -0.040850643 -0.3049465
-0.2596248 0.35208735 0.17917256 -0.31283048 -0.13775723 -0.22260022 -0.046234336 -0.029531924
-0.008511384 0.3048144 0.25417694 -0.15579675 -0.19330207 0.32942897 0.46038663 0.41891435

net.0.bias f4 [128]
00000000: 7af0 72be 1f52 a13e 846f 1bbd 42dc 94be
00000010: 666b cebc 05f8 f73c 066d 4ebe 95cc 8abe
00000020: cdc2 9e3d f86a 9bbe a1a4 8dbe b187 a63d
00000030: 52f4 afbe 0f54 033e 3e7e 0f3e 74d1 bdbe
00000040: a263 2cbc 1ae8 b8be 9835 b7be 38e6 66be
00000050: a674 763c 99cb 273e bc5a ef3d fff1 cebe
00000060: 5a5c aebe 6161 1dbe 61e8 4b3d 342e f93c
00000070: 44f3 5abe 4959 2ebe 3260 7dbd 0b7f 9f3e
00000080: ea8b 643d 8250 2ebe 8aa5 82be 3782 60be
00000090: 7e4a 203e f8c9 46be 1f0d 69be 4513 1f3e
000000a0: 6eef bc3e 02bd 6ebe 2a45 acbe 3b42 a0be
000000b0: c25c b73e 89e7 30bd 9bf9 8dbd 651c 09be
000000c0: b67e b0bc 56e5 d8bd 04ac 99be 08ab 433e
000000d0: 187f a4bd 974a c83d c90c 173e bfe4 d83d
000000e0: 839f 633e 8bdc ae3e 314e 903e df08 a0be
000000f0: 7576 81be 3efb 4dbd 8521 b8be 96be c23d
00000100: 3e05 d9bd 88b4 2ebe 7a34 77be bbea a83e
00000110: 1761 1fbe b366 a7bd 1674 83be 0f0c b93e
00000120: bcc7 16be 8cdb 22be a27a 4abe a7e4 d8bd
00000130: f756 d13b 2f08 12bd 7188 afbe 294c 2b3e
00000140: fb41 e53d 8df8 843d da6a 313e f772 7abe
00000150: 4976 433e 6e5f ac3d 27b9 f8bb a0f4 43be
00000160: 4d48 edbd 9d8d cc3d b656 b1be fc8b 823e
00000170: a9fa 9e3e fdab f63b c45b db3d 71b0 213d
00000180: a1a5 693e 1d96 863d c6b4 b4bd d778 aebe
00000190: 5117 9b3e cb90 7ebe 50e3 36be ac69 23be
000001a0: 2286 443e 098d a73e 9bd6 6f3e 2b2a b4be
000001b0: 25a5 273e 8a10 ad3c dbd8 053e a7d4 76bd
000001c0: 748e a53e 60b7 44be 8ba8 ba3c 96ba fb3d
000001d0: 906d a1be d71e 633e f341 c8bc adb3 04bd
000001e0: 5fb4 3f3e e686 fdbd 825a 953d 2be1 a8be
000001f0: b32f ad3e 91c7 ad3e f66a e73d ec02 453d
-0.23724547 0.31507966 -0.037948146 -0.29074293 -0.025197696 0.030269632 -0.20158777 -0.2710921
0.07751999 -0.30355048 -0.27664664 0.0813135 -0.3436609 0.12825035 0.14013001 -0.37073863
-0.010521801 -0.3611458 -0.35783076 -0.22548759 0.01504246 0.1638626 0.11687228 -0.40419003
-0.34054834 -0.15369178 0.04978216 0.03041754 -0.21381861 -0.17026247 -0.061859317 0.31151614
0.055797495 -0.17022899 -0.2551692 -0.21924673 0.15653417 -0.19412982 -0.22758912 0.15534694
0.3690142 -0.23314288 -0.33646518 -0.3130053 0.35812956 -0.04318956 -0.06932374 -0.13389738
-0.021544795 -0.10590617 -0.3001405 0.19108212 -0.08032054 0.09779852 0.14750971 0.10590505
0.22228818 0.34152636 0.28184655 -0.31256768 -0.25285688 -0.05028843 -0.35963073 0.09509008
-0.10596703 -0.17061055 -0.24141112 0.32991585 -0.1556438 -0.08173885 -0.25674504 0.36142012
-0.1472463 -0.15904063 -0.19773343 -0.10590487 0.006388541 -0.035652336 -0.34283784 0.16728272
0.111942254 0.0649272 0.17325917 -0.24457918 0.19088091 0.08416639 -0.0075904313 -0.19136286
-0.11586056 0.09987948 -0.34636468 0.25497425 0.31050614 0.007527827 0.10710862 0.03947491
0.22817089 0.065716006 -0.08823542 -0.34076568 0.30291227 -0.24859922 -0.1786015 -0.1595828
0.19191793 0.3272479 0.23421709 -0.35188422 0.16371591 0.02112605 0.13071005 -0.060261395
0.32335246 -0.19210577 0.022785446 0.12291448 -0.31528902 0.22179733 -0.02444551 -0.032397915
0.1872115 -0.123792455 0.072926536 -0.3298429 0.33825454 0.3394132 0.11299698 0.04809849

net.1.weight f4 [128]
00000000: 49f1 843f 3ab5 ac3f f77d 833f 2c7f 7f3f
00000010: 9707 a23f 2c7f 7f3f 2c7f 7f3f 7fcc 8b3f
00000020: 9d66 773f 2c7f 7f3f f391 803f 62f0 7b3f
00000030: 2c7f 7f3f 1b3b 803f 53dc 723f 2c7f 7f3f
00000040: 0cf1 873f 2c7f 7f3f 710f 803f 757f 7b3f
00000050: ff40 823f 8ae0 763f 5f87 733f 5c2a 9c3f
00000060: d5f4 833f 4671 7a3f beed 803f 99d7 823f
00000070: 2c7f 7f3f 288c 933f 8020 783f 76d8 813f
00000080: 22c2 793f 4430 833f 2c7f 7f3f 2c7f 7f3f
00000090: cfb6 7f3f 86bd 913f 2c7f 7f3f c96e 803f
000000a0: 865b 893f 3795 783f 2c7f 7f3f 2c7f 7f3f
000000b0: 51a0 7a3f 77d8 783f 7fbe 823f 1515 7b3f
000000c0: 241d 7f3f a654 7f3f 62e8 813f d638 823f
000000d0: 614d 923f 2c7f 7f3f dc30 843f 87e5 823f
000000e0: 6c49 9e3f a22e 773f ba04 7f3f 0b6a 853f
000000f0: 2c7f 7f3f ccfb 753f 2c7f 7f3f f51f 853f
00000100: df26 843f a037 823f 6919 783f f7e0 8e3f
00000110: 2c7f 7f3f 6e9e 7c3f 2c7f 7f3f 2098 853f
00000120: 5b2d 753f 70b9 7e3f 3cd7 823f eb8d b63f
00000130: da5d 683f 9ecc 773f 2c7f 7f3f ce37 7d3f
00000140: 4e23 863f fcd6 703f fcad 723f 9440 793f
00000150: 2e99 7d3f 205a 7b3f 4036 873f 2c7f 7f3f
00000160: a5a4 753f 9221 823f 2c7f 7f3f 46de 793f
00000170: ae9e 7e3f ab9e 8a3f 24ce 6f3f 6907 7b3f
00000180: 4e06 7c3f 149c 0c40 097d 7a3f d9f9 803f
00000190: cc21 753f 9b76 983f 4297 833f 6bb0 ac3f
000001a0: 887e 833f 95c6 7a3f 9fbc 773f 2c7f 7f3f
000001b0: c8ac 743f 2c7f 7f3f 2c7f 7f3f 01f8 783f
000001c0: 83ae 7e3f b70e 923f 2c7f 7f3f 58b0 6f3f
000001d0: 2c7f 7f3f a281 813f a315 7f3f 2c7f 7f3f
000001e0: c8af 7c3f 4450 7f3f 9ee9 803f 2c7f 7f3f
000001f0: 2c7f 7f3f 23c3 803f ff1c 7d3f 2c7f 7f3f
1.0386134 1.3492806 1.0272816 0.99803424 1.2658566 0.99803424 0.99803424 1.0921782
0.9664095 0.99803424 1.004454 0.9841367 0.99803424 1.0018038 0.9486744 0.99803424
1.0620437 0.99803424 1.0004712 0.9824136 1.0176085 0.9643637 0.95128435 1.2200427
1.0309092 0.9782909 1.0072553 1.0222045 0.99803424 1.1527147 0.9692459 1.0144184
0.9756185 1.0249104 0.99803424 0.99803424 0.9988832 1.1385963 0.99803424 1.0033809
1.0731056 0.97102684 0.99803424 0.99803424 0.97900873 0.972053 1.0214385 0.98079044
0.9965384 0.9973854 1.0149043 1.0173595 1.1429864 0.99803424 1.0327411 1.0226296
1.2366157 0.9655553 0.9961659 1.0422987 0.99803424 0.96087337 0.99803424 1.0400378
1.0324363 1.0173225 0.9691377 1.1162404 0.99803424 0.98679245 0.99803424 1.043705
0.9577233 0.99501705 1.0221934 1.426206 0.90768206 0.96796596 0.99803424 0.98913276
1.0479524 0.9407804 0.9479673 0.97364163 0.9906186 0.98184395 1.0563431 0.99803424
0.9595435 1.0166495 0.99803424 0.9760479 0.99460876 1.0829672 0.9367392 0.9805818
0.9844712 2.1970263 0.9784704 1.0076247 0.95754695 1.1911196 1.0280535 1.3491338
1.0272989 0.9795926 0.9677219 0.99803424 0.95576143 0.99803424 0.99803424 0.97253424
0.99485034 1.1410741 0.99803424 0.93628454 0.99803424 1.0117686 0.9964239 0.99803424
0.9870572 0.9973185 1.0071294 0.99803424 0.99803424 1.0059551 0.9887237 0.99803424

net.1.bias f4 [128]
00000000: e707 c23c 5e71 923c 0ba1 a8bc 0000 0000
00000010: ec79 0cbd 0000 0000 0000 0000 3c29 ff3b
00000020: 57ab 01bd 0000 0000 a079 3a3c 9c06 77bc
00000030: 0000 0000 de8c b3bc cbc1 60bd 0000 0000
00000040: a5c4 4f3b 0000 0000 cf36 5fbc 98cc 82bc
00000050: 9542 9a3c 7d07 00bd cf99 2bbd 03c8 793b
00000060: c66a 123c 3e9d c4bc 22d2 f7bb a912 e6bb
00000070: 0000 0000 e264 843d f75a 1cbd e5dd 1bbc
00000080: 7571 81bc 6bc9 a03c 0000 0000 0000 0000
00000090: 21b6 b93b 7c48 753b 0000 0000 efea 19bc
000000a0: 6ae9 3b3d 3be4 2abd 0000 0000 0000 0000
000000b0: 3cab 82bc ab33 f8bc d860 e93c 57d0 c2bc
000000c0: 4ce0 0abd 0196 0cbd acd5 99bc 4082 0dbc
000000d0: 068a 023d 0000 0000 2466 df3c d1b5 f03b
000000e0: d7ac 7c3c ad37 fcbc 4f8c 1fbc 4876 e7bc
000000f0: 0000 0000 30ca 97bd 0000 0000 b60e 543b
00000100: 8135 91bc 4ece af3c 0d9f 7bbc 32aa e83c
00000110: 0000 0000 fa1b 72bc 0000 0000 f549 06bc
00000120: a3c4 28bd 6034 95bd 71b8 4b3c 5d8d 463d
00000130: dc73 c4bd bcbb 01bd 0000 0000 1127 66bc
00000140: 6fbd 1e3d ffb2 6ebd 9bbd 32bd 9904 09bd
00000150: e881 84bc 5f8c dcbb 1f27 243c 0000 0000
00000160: 99af 3abd c8fc 50bc 0000 0000 310b debc
00000170: c8c2 06bc dbac 04bd 07f7 6bbd 5c7b c0bc
00000180: 7853 31bd 1255 683d 22c2 d6bc f4aa 5c3c
00000190: f403 35bd d2a7 293d 51f5 e1ba 0375 183d
000001a0: 2947 b93c c57b c6bc c5e9 1abd 0000 0000
000001b0: 27f8 67bd 0000 0000 0000 0000 d017 9a3c
000001c0: 736c 85bc 4185 fb3c 0000 0000 d638 7fbd
000001d0: 0000 0000 9f11 27bd 580a f6bc 0000 0000
000001e0: 6d0b 93bc c268 dcbc 297c c13c 0000 0000
000001f0: 0000 0000 3bee 32bc 0c8e 60bc 0000 0000
0.023685409 0.017876323 -0.020584604 0.0 -0.03429596 0.0 0.0 0.007786898
-0.031657543 0.0 0.011381537 -0.015077259 0.0 -0.021917757 -0.054872315 0.0
0.0031702903 0.0 -0.013623907 -0.015966699 0.018830577 -0.03125714 -0.04189473 0.00381136
0.00893659 -0.02400076 -0.0075628916 -0.0070212674 0.0 0.06464554 -0.03817269 -0.009513353
-0.01580117 0.019627294 0.0 0.0 0.0056674634 0.0037427237 0.0 -0.009394391
0.045876898 -0.041721564 0.0 0.0 -0.015950792 -0.030298075 0.028488562 -0.023780985
-0.033905312 -0.034322742 -0.018778645 -0.008637011 0.03186991 0.0 0.027270384 0.007345893
0.015422068 -0.030788267 -0.009738042 -0.028254643 0.0 -0.07411611 0.0 0.0032357401
-0.017725708 0.021460678 -0.015357745 0.028401468 0.0 -0.014777178 0.0 -0.008196344
-0.041203152 -0.0728538 0.012434111 0.04847466 -0.09592411 -0.031673178 0.0 -0.0140474
0.038754877 -0.058276173 -0.043637853 -0.03345165 -0.016175225 -0.0067306007 0.010019093 0.0
-0.04557762 -0.01275558 0.0 -0.027104946 -0.00822515 -0.03239141 -0.05760863 -0.023496322
-0.043292493 0.056721754 -0.026215617 0.013468493 -0.044193223 0.04141981 -0.0017239248 0.037220966
0.02261694 -0.02422894 -0.037820596 0.0 -0.05663314 0.0 0.0 0.018810183
-0.016287064 0.030703189 0.0 -0.062310062 0.0 -0.04078829 -0.03003423 0.0
-0.017949784 -0.026905421 0.023618774 0.0 0.0 -0.010921056 -0.013705742 0.0

net.3.weight f4 [128, 128]
00000000: 739f a7bd 8edd 283e 1f18 08bb 7468 81bd
00000010: 4f74 b1be 8978 aa3c a210 af3d 8a72 76bd
00000020: 30b8 21bd 80e8 9e3d 52bf d4bc c9ec 2e3d
00000030: 02d0 943d 3fce d2bd 05df 9c3d 4ef0 ab3d
00000040: 0284 b0ba ad27 4ebd 49fc 593d 037e 85bd
00000050: 7076 be3d 8b0e 5abc 432e b23d 8b39 52bc
00000060: 080d 163d a7e8 843d e58a 313d 7a2e 693d
00000070: e1dc b0bc 3ed1 1b3e a946 e8ba d52c 55bd
00000080: cd1b 88bd 7ca4 6a3c cec8 1abd c315 1d3d
00000090: d26d 62bb 95c1 e2bd 3ce7 fe3c b95d 753d
000000a0: 197d ee3d 8852 19bd 9123 30bc b0e0 64bd
000000b0: f8e1 39bc 89f7 fb3c 3ee2 973d d57d afbd
000000c0: 8811 b2bb fd9f eebc 5381 cdbd 5dbd afbd
000000d0: 026a 023e c96c ab3c 23d8 993d 62b4 833d
000000e0: 2ac9 b83c c643 fabc 71cc 9b3d d685 36bc
000000f0: 31de 053c f259 18bc ff5c 0c3d 989e 973b
00000100: e9df 8abd 4969 303d 5aea 07bc 2ce2 1b3e
00000110: 096e b2bd 9fd3 423d 6371 103d ecdf d839
00000120: 561d 8fbd 77bb c4bc f688 55bd 9622 c23d
00000130: 3124 083d 3c4d 9f3d 5055 87bd 3143 8c3d
00000140: bfdb 973d e7a8 78bd 23df a8bd ce25 2b3d
00000150: 41eb 933d 9a17 f93d 554e b43d dfe4 02bd
00000160: f3a5 073c a3eb 1bbd 8aba 803d 2ffc 3b3d
00000170: b0a4 b4bd 39fb 3f3b d36a 4dbd 3fbd a4bd
00000180: 904d 7a3d c2d5 7cbe 50b6 143b c33f 95bd
00000190: 3a04 a2ba 6ac0 043e 5f22 d4bd 7c53 c0bd
000001a0: 5a95 983d a745 06bd 4a1b 95bd ca74 653d
000001b0: 4307 203d dac7 dabc 22ca 4f3d 6161 5c3d
000001c0: 7b58 aa3d 57be b5b9 0ef2 d6bc 966b a33d
000001d0: ba52 653d f879 f7bc 1a1f 8c3d 8412 9dbd
000001e0: b8aa 943c a487 61bd e6de c7bc c17b 3e3b
000001f0: 8a83 66bd 9772 2b3d 7c4d 933d ad94 0f3d
00000200: ecaf 41bd c661 963e 95b5 673d 77c4 243d
00000210: c12e 32be 2c52 f23b 51e6 963b b31c 12be
00000220: 80b6 603d 5c2c 6b3c 3afd 0e3c 2023 773d
00000230: 3b2a 323d 97ca 603c 45a5 4e3c e937 013d
00000240: 32cd 493b a09e 873d c68a b0bc 0046 30bd
00000250: 4d7c 5bbd 5ab4 d7bc 025c bfbc ac93 a13d
00000260: 28f0 f3bd 5ea0 06bd b7f6 94bd 93c2 0fbc
00000270: d669 a0bd 5daf 953d d494 74bd 676c b83c
00000280: 4ea3 df3d 1f1a d5bd dc2e ff3c 9309 25bd
00000290: a5e7 aa39 699f 22be 0929 103c 9ba5 3eba
000002a0: bd94 e53c 7ff0 743d 66e8 4bbd b1b1 a9bb
000002b0: 9b3e bf3c dc94 3b3d dc58 613d 4fb4 473b
000002c0: 2f62 a3ba aa37 7e3d e1f6 f0bc 555a 9abd
000002d0: b857 e1bd 7757 203d bc76 943d 1618 debc
000002e0: 4e77 a03d 5d23 90bd fbe5 b23d ad7d ec3d
000002f0: e5c5 4bbd a867 a6bc 49ac 1f3c 7a5c f43b
00000300: ed74 d2bd cf18 24bc 09d0 303c 4776 9e3d
00000310: dc02 ef3b d296 44bc 1be0 89bd 2382 883d
00000320: 3f1b 823d 72bd ac3d db2f 57bd 4651 773e
00000330: 983a 7ebd aa6b 84ba edd9 b7bc 8d66 993c
00000340: 9bc4 b83d 6a2b 573d 43ea 48bd 79c7 c3bc
00000350: 8af6 0d3d c3ba 943d da28 73bd 1f1e 2b3d
00000360: 9026 41bd b6d7 72bd 20f8 adbd bd13 843d
00000370: 4998 4cbb d707 0abd 6896 6d3d 4edc 3ebd
00000380: f84e 943d 76e1 a93e 1e9a 2c3c 7d37 7e3b
00000390: e8d3 12bb 87bf 00be e3cd 7fbd 81d8 68bd
000003a0: 3d92 82bc 1852 5ebb 6e33 383d 9c4b a03d
000003b0: 29cd 18bd 7669 4f3d ccdc 62bd 244e bb3d
000003c0: 4590 12bd 793d 133e 6913 313c dba4 8a3d
000003d0: cdd7 89bc 7698 afbd ba02 a53d 1e45 aa3d
000003e0: e877 93bd 0a64 543a 5ebb 013d e969 98bc
000003f0: 2cf9 c03b 6cc4 5c3d c37d 40bd 9278 b0bd
-0.081847094 0.16490766 -0.002076633 -0.06318751 -0.3465905 0.020809429 0.08548094 -0.060167827
-0.039482296 0.077591896 -0.025970135 0.042706285 0.07266237 -0.102932446 0.07659725 0.08395444
-0.0013467076 -0.050330807 0.053219113 -0.065181755 0.09299934 -0.013309131 0.0870023 -0.012831102
0.03663352 0.064896874 0.04334535 0.05692909 -0.021589698 0.15216538 -0.0017721254 -0.05204471
-0.066459276 0.014321443 -0.03778916 0.03835083 -0.0034550321 -0.11072079 0.03111612 0.059903834
0.11644954 -0.037432224 -0.010750667 -0.05587834 -0.011345379 0.030757682 0.07416199 -0.085689224
-0.005434219 -0.029129023 -0.10034432 -0.0858104 0.12735751 0.020925896 0.07511928 0.0643089
0.02255686 -0.030549895 0.076073535 -0.011140307 0.00817065 -0.009298788 0.034268375 0.00462706
-0.06780989 0.043069158 -0.00829562 0.15222996 -0.08712394 0.0475651 0.035264384 0.00041365565
-0.06988017 -0.024015171 -0.05213257 0.09479253 0.03323764 0.07778403 -0.06608069 0.06848753
0.0741496 -0.060707953 -0.08245685 0.0417841 0.072226055 0.12162705 0.08804003 -0.03195655
0.0082793115 -0.038066518 0.062855795 0.045894798 -0.08820474 0.0029294027 -0.050150704 -0.08043908
0.061109126 -0.24690917 0.0022691675 -0.07287552 -0.0012360879 0.12964025 -0.10358118 -0.093909234
0.074503615 -0.03278127 -0.072805956 0.05601958 0.039069425 -0.026706625 0.05072988 0.053803805
0.083176576 -0.00034664824 -0.026238468 0.07979505 0.055987097 -0.030209526 0.0684187 -0.07669547
0.018147811 -0.055060998 -0.024398278 0.0029065462 -0.05627779 0.04185733 0.07192513 0.035053898
-0.047286913 0.2937147 0.056569654 0.040226426 -0.17400648 0.0073950496 0.0046050926 -0.1426876
0.054861546 0.014353838 0.008727366 0.060336232 0.043497305 0.013720176 0.0126126455 0.03154746
0.0030792472 0.06622052 -0.021550547 -0.043035507 -0.05358534 -0.026331116 -0.023359302 0.07889494
-0.119110405 -0.03286778 -0.072736196 -0.008774417 -0.078326866 0.073088385 -0.059712246 0.022512628
0.1091982 -0.10405373 0.031150274 -0.040292334 0.00032597515 -0.15881123 0.008798846 -0.0007272602
0.028025026 0.059799667 -0.04978218 -0.005178653 0.023345282 0.04579626 0.055016384 0.0030472463
-0.0012465174 0.062064804 -0.029414596 -0.07536761 -0.11003059 0.039145913 0.07249209 -0.027111094
0.078352556 -0.07037995 0.087352715 0.11547408 -0.049749274 -0.020313099 0.009745666 0.007457313
-0.10276208 -0.01001568 0.010791787 0.07737403 0.007294042 -0.011998849 -0.06732198 0.066654466
0.06352853 0.08434571 -0.052535873 0.24152097 -0.062067598 -0.0010102887 -0.022442782 0.018725658
0.090218745 0.052531637 -0.049051534 -0.023898827 0.034658946 0.072621845 -0.05936513 0.041776773
-0.047155917 -0.05928775 -0.08494592 0.06449077 -0.0031218699 -0.033698883 0.058004767 -0.046596818
0.072416246 0.33179826 0.010534791 0.0038790398 -0.0022404138 -0.12573062 -0.06245221 -0.0568471
-0.015938872 -0.0033923443 0.044970922 0.07826921 -0.03730503 0.050637685 -0.05538635 0.091457635
-0.035782117 0.14378919 0.01080785 0.06769725 -0.016826535 -0.085740015 0.08057161 0.08313964
-0.07200605 0.0008102065 0.031672828 -0.01860519 0.0058890786 0.05389826 -0.046994936 -0.08616747

net.3.bias f4 [128]
00000000: 353f adbd 96cb f13a d790 0a3d 9632 1fbd
00000010: cb8a 013d f825 8c3c 8a56 afbd 8114 67bd
00000020: ce5a c3bd 7246 35bd 45f8 823c 6c84 e2bc
00000030: 5103 293d 7e40 01bc 360b 903d b1ee ed3b
00000040: 0899 d9bd 4bd9 e2bc 6365 593d 0a96 c23b
00000050: 3aee 1b3d b250 893d 351a b8bd ca0f 443d
00000060: a89b 893d a0b8 8b3d a159 56bd 4809 b93c
00000070: a9d2 6a3d d6cf 5dbd 1fb5 9ebb ff82 43bd
00000080: 994e 843d fdeb 15bd a409 3abd 00e0 913c
00000090: 8d9a 94bd bf9a 47bd cf9a ab3d de51 4fbd
000000a0: 8c14 f73c 5d6d 3a3d 29eb 1cbd f7c8 dd3c
000000b0: 2434 d23b 5e95 83bd f7b2 96bd 6fde 693d
000000c0: 8e5f bd3c b2a5 6b3d 0b6b 9e3c 1ef1 a8bd
000000d0: 8633 95bc f94f 1d3d d8d7 fbbc c312 883d
000000e0: ef54 80bc e2d9 b23b 8c68 c03c 522e a33d
000000f0: d4ab 8dbd 6ad1 02bd dc39 f8bb 30d0 e23b
00000100: 4960 42bd b9e3 403d 9fb1 0ebd 1051 50bb
00000110: 3531 893d a4b4 053b cae7 9c3d 276d b33d
00000120: d9ec ff3c 9084 4cbd 15e0 29bd f63c 923d
00000130: 657f 20bd e9cb 87bd 1c15 80bd 35e4 363b
00000140: 4b38 a9bd 581e a13d 7224 97bd 4f10 e2bd
00000150: b507 ffbc edd9 013d 4c04 d5bc d872 a53c
00000160: 0506 a7bd 3034 763d e2cc 3e3d 2df1 a43b
00000170: c796 653c 90d8 7c3d 4c30 f6bb 4134 913c
00000180: ba22 833d 728e bf3b d20e a13d 9374 8ebd
00000190: fac0 013d 99cd 32bd 1cd6 5abd c0dc b6bd
000001a0: 811a 803d 635a 043b 54e3 a73d 4a17 ab3d
000001b0: 17c3 aebd 813d 663d 55fc e2bb 93db 92bc
000001c0: d9d2 9cbd 8fb5 683d d05c 81bd cd41 8ebd
000001d0: e7c6 4a3c 2d3e 2cbc 6784 16bc 8d42 f83c
000001e0: a825 15bc 4488 20bd 42f0 2e3d 59e9 ad3d
000001f0: a883 7ebb f04b 31bd 8353 2ebd 9100 56bd
-0.084593214 0.0018447514 0.033829536 -0.038866602 0.031626504 0.017107949 -0.08561428 -0.05641604
-0.09538804 -0.044256635 0.015987525 -0.027651034 0.04126293 -0.007888911 0.07033388 0.0072611202
-0.106248915 -0.027691504 0.053075206 0.005938296 0.038068987 0.067048445 -0.089893736 0.04786662
0.06719142 0.06822324 -0.05233157 0.022587433 0.057329807 -0.054153286 -0.0048433687 -0.04773235
0.06460304 -0.03660201 -0.04541935 0.017807007 -0.07256041 -0.04873156 0.08379137 -0.050615184
0.030161165 0.045514453 -0.038310204 0.027073367 0.006414907 -0.06424974 -0.073583536 0.057096895
0.023116853 0.057531066 0.019338151 -0.082491145 -0.018213045 0.038406346 -0.03074257 0.066442035
-0.0156655 0.0054581026 0.023487352 0.07967819 -0.06917539 -0.031937994 -0.0075752567 0.0069217905
-0.047455106 0.047092173 -0.03483736 -0.0031786598 0.066988386 0.002040186 0.07661398 0.087610535
0.031240867 -0.04993111 -0.041473467 0.071405336 -0.039183993 -0.0663069 -0.06254026 0.0027907018
-0.0826269 0.07867116 -0.07379998 -0.11038267 -0.031131605 0.03170197 -0.026003025 0.020196363
-0.08155445 0.060108364 0.04658211 0.005033633 0.014012999 0.061729968 -0.0075130817 0.017725112
0.06403108 0.005845838 0.07864155 -0.069558285 0.031678177 -0.043653104 -0.053426847 -0.089288235
0.06255055 0.0020195476 0.08197656 0.083540514 -0.08533304 0.056211 -0.006927053 -0.017926967
-0.076574035 0.056813773 -0.06316531 -0.06946144 0.012376524 -0.010512871 -0.009186841 0.030305171
-0.009103216 -0.039192453 0.042709596 0.08491773 -0.0038835797 -0.04328531 -0.04256011 -0.052246634

net.4.weight f4 [128]
00000000: f589 743f 2432 7a3f 673d 7c3f 7442 813f
00000010: f0e5 6b3f 3074 763f 3816 5a3f 9863 703f
00000020: dbb1 883f 22f4 733f 2c7f 7f3f c6d1 863f
00000030: 018e 843f 925b 6a3f b6fd 7e3f 711d 743f
00000040: 2c7f 7f3f 0f13 813f d7bf 843f 2c7f 7f3f
00000050: eb5f 7c3f 4f1e 723f 5c8f 6d3f c0bb 703f
00000060: 7ee7 723f b82f 7c3f 2c7f 7f3f 1408 713f
00000070: 6f67 803f 3169 7c3f 4eb6 833f cf73 7e3f
00000080: b283 593f 4689 7f3f 2c7f 7f3f ef62 7d3f
00000090: 69a1 563f cf20 553f d233 863f a16d 7d3f
000000a0: d98d 673f 264e 743f 395f 4a3f 92e0 7d3f
000000b0: 9323 5c3f de4d 823f 8dbc 7c3f fa9b 513f
000000c0: 8125 753f 3f0d 7f3f 6c78 463f 1565 7a3f
000000d0: 3947 6f3f f17b 873f 9ae8 8f3f dbc4 703f
000000e0: 7098 843f 2095 783f 2c7f 7f3f cf44 783f
000000f0: 638e 773f 4dca 643f 75ed 7a3f 3923 763f
00000100: 21dc 713f ba26 423f 765d 5e3f e6f6 7d3f
00000110: d025 733f 2c7f 7f3f 225c 9b3f d6a8 643f
00000120: ee22 753f 2757 803f 6b08 803f fbcb 6b3f
00000130: c87d 773f 2c7f 7f3f 4cb4 6a3f 9b59 7b3f
00000140: a17b 633f 49a6 8b3f 2afc 793f 2c7f 7f3f
00000150: 2c7f 7f3f 4a96 723f 3698 953f 34fe 4a3f
00000160: 8ffa 4d3f c2de 823f f75e 7e3f 061b 723f
00000170: dcdc 7a3f 3f68 7c3f 6487 773f 61e7 7f3f
00000180: f35d 823f 2c7f 7f3f 17a4 7b3f 7f1d 773f
00000190: 3a0f 803f 9128 673f 154c 7a3f 0637 5a3f
000001a0: 0912 6c3f ba48 773f 2c7f 7f3f 2126 813f
000001b0: 8102 613f 3874 783f 2c7f 7f3f 339d 863f
000001c0: 079a 813f 2f7b 7b3f 4d4c 803f d271 753f
000001d0: 2c7f 7f3f e278 7d3f 3907 813f bc15 603f
000001e0: 2c7f 7f3f d8ac 6f3f 81ff 7f3f 2c1e 7b3f
000001f0: 84cd 7e3f 77dc 5a3f 72bc 7e3f c929 853f
0.95523006 0.9773276 0.9853119 1.0098405 0.9214773 0.9627104 0.85190153 0.9390197
1.0679277 0.9529439 0.99803424 1.0532768 1.0355836 0.91545975 0.9960588 0.95357424
0.99803424 1.0083941 1.0371045 0.99803424 0.9858386 0.945775 0.92796874 0.94036484
0.9488448 0.98510313 0.99803424 0.9415295 1.0031565 0.9859801 1.029001 0.9939546
0.84966576 0.9981884 0.99803424 0.98979086 0.8384004 0.83253187 1.0484564 0.98995405
0.9045082 0.95431745 0.7905155 0.9917079 0.8599178 1.0180013 0.98725206 0.81878626
0.9576035 0.99629587 0.775275 0.9781049 0.9346805 1.0584699 1.1242859 0.9405038
1.035902 0.97102547 0.99803424 0.96979994 0.9670164 0.89371186 0.9801858 0.96147496
0.94476515 0.7584034 0.8686136 0.9920486 0.9497957 0.99803424 1.2137492 0.89320123
0.95756423 1.0026597 1.0002569 0.92108124 0.966763 0.99803424 0.9168136 0.981836
0.8886052 1.0910121 0.97650397 0.99803424 0.99803424 0.9476057 1.1687076 0.79294133
0.8046045 1.022423 0.99363655 0.94572484 0.97993255 0.98596567 0.96690965 0.9996243
1.0184921 0.99803424 0.98297256 0.9652938 1.0004647 0.90296274 0.9777234 0.8524021
0.9221502 0.96595347 0.99803424 1.0089761 0.87894446 0.97052336 0.99803424 1.0516723
1.012513 0.9823484 1.0023285 0.958768 0.99803424 0.9901258 1.0080329 0.87533164
0.99803424 0.93623114 0.99999243 0.98092914 0.9953234 0.8549265 0.99506295 1.0403377

net.4.bias f4 [128]
00000000: 71b5 efbc 4c96 5ebc abf0 84bb db9b aa3b
00000010: 524a adbd 3b80 fabc 6974 2cbe d48b a9bd
00000020: f5b7 12bd 6ae6 b9bd 0000 0000 b466 2ebd
00000030: 7344 23bc b061 eabd c617 a63b 8495 33bc
00000040: 0000 0000 79c7 f73b 8410 7b3c 0000 0000
00000050: 4395 d3bb a566 a8bd 4470 cdbd d0c0 fcbd
00000060: 91c0 d1bd 615e c2bb 0000 0000 005f 85bd
00000070: eb1c babd 9dbc bb3a 60c1 473c d93e e7bb
00000080: 6dae b2bd ec69 c23a 0000 0000 7059 1bbd
00000090: 7be9 0ebe 3039 63be f960 24bd 42ae 533b
000000a0: 4470 e2bd 7b9d 91bd 51e6 e2bd 8f4b b8ba
000000b0: 69af 0bbe 5291 083c 92df 8d3b ba59 8fbe
000000c0: d18f 95bd e994 babd b32a 61be 112b 48bc
000000d0: b699 acbd acea a3bd 6cbe 3cbd 7e99 b3bd
000000e0: bdca 90bd 3607 01bd 0000 0000 5726 c0bd
000000f0: ff95 b9bc 013b c0bd 4822 5bbd bd3b 1dbd
00000100: bde6 9bbd c1b9 3abe ab32 28be 8540 c4bb
00000110: ff4b 31bd 0000 0000 870c d43b b30e 4cbd
00000120: 247e 0fbd 7a52 7f3b eca6 c9bb 1502 adbc
00000130: b42d 6dbc 0000 0000 cfb5 0cbd 1031 8cbc
00000140: f709 d6bd bd12 b0bc 5b3f 2a3b 0000 0000
00000150: 0000 0000 c1fc debd bd15 51bd a861 79be
00000160: eea6 d8bd 1bcf 463c 1112 11bc 0365 82bd
00000170: e34e d9bd ee61 7ebb da9a 86bd 2003 a33a
00000180: 9339 013c 0000 0000 4120 27bc 43b3 01be
00000190: fd52 c23b a370 93bd 5b45 b5bc 3734 10be
000001a0: 523f bfbd 2c28 58bc 0000 0000 9506 583c
000001b0: a497 f0bd 504e e6b8 0000 0000 0ddb 8fbc
000001c0: d6d8 07be b5d5 18bc 23c9 1e38 9750 0abc
000001d0: 0000 0000 d85b 1b3b 4a85 fd3b 7ad0 f4bd
000001e0: 0000 0000 adc1 d4bd af92 943b 4cc2 97bc
000001f0: 545e bd3b 76fa 9fbd 4024 c1bd e255 87bd
-0.029261323 -0.013585638 -0.00405701 0.0052065677 -0.08461441 -0.030578723 -0.16841282 -0.08278623
-0.035819966 -0.09077151 0.0 -0.042578414 -0.00996505 -0.11444414 0.005068752 -0.01096094
0.0 0.007561621 0.015323762 0.0 -0.0064570024 -0.08222703 -0.100311786 -0.123414636
-0.10241807 -0.005931661 0.0 -0.065122604 -0.09087547 0.0014323179 0.0121921 -0.0070570526
-0.08724675 0.0014832593 0.0 -0.03792709 -0.13956253 -0.22189784 -0.040131543 0.003229991
-0.11056569 -0.07110115 -0.110790856 -0.0014060604 -0.13641132 0.008335428 0.00432963 -0.27998143
-0.073028214 -0.091104336 -0.21988945 -0.012217299 -0.084277555 -0.080037445 -0.046080038 -0.08769511
-0.07069919 -0.031501018 0.0 -0.09382313 -0.022654532 -0.09386254 -0.05349949 -0.03838705
-0.07612369 -0.18234922 -0.16425578 -0.0059891366 -0.043285366 0.0 0.00647122 -0.049818706
-0.035032406 0.0038959072 -0.006153932 -0.021119157 -0.0144762285 0.0 -0.034353074 -0.017113239
-0.104511194 -0.02149331 0.0025977704 0.0 0.0 -0.10888053 -0.051046122 -0.24353659
-0.10578714 0.012134339 -0.008854405 -0.06366923 -0.106107496 -0.0038815695 -0.06572504 0.0012436844
0.007887262 0.0 -0.010200561 -0.12666039 0.005930303 -0.07199218 -0.022127798 -0.14082418
-0.09338249 -0.0131931715 0.0 0.013185163 -0.11747673 -0.000109818415 0.0 -0.017560506
-0.1326631 -0.0093282955 3.785746e-05 -0.008442066 0.0 0.0023705866 0.0077368366 -0.11953826
0.0 -0.10388503 0.0045340876 -0.018525265 0.005779067 -0.078114435 -0.09430742 -0.06608178

net.6.weight f4 [64, 128]
00000000: 4697 7abd 2215 e9bc ef72 263d ef24 b3bd
00000010: 9cd3 aabd acc4 d4ba 7a81 883d e3dc 1fbd
00000020: 1fc4 183d 84b6 79bc b825 883d 41c8 82bb
00000030: 943b 723c 89c8 8dbc f1f5 b33c e544 aebc
00000040: 5cb3 5e3c 26e5 0abd b85b 2bbd 8ecf a2bd
00000050: 0f93 b0bd f252 5ebd 0ab2 9f3d d089 b43d
00000060: b7dc a5bd 9148 95bc 0381 163d f04e 40bd
00000070: 219c a23c ac20 71bb d571 11bd d9e4 2fbc
00000080: 1cac 4cbc 4eec 4abd d8a1 9d3d 5bbd 203d
00000090: 9807 913d dd58 be3c b2af 85bd f9f9 7abd
000000a0: 5df5 023d 6259 a6bd 61b6 beb9 6a01 933d
000000b0: 31cd 0fbd 310c 263c cfd4 b2bd 5ed7 88bd
000000c0: aaaa eebc 75c6 be3c 5100 97bc 23f0 61bd
000000d0: 0e98 693d 5597 9c3c 9024 8e3d 4f87 35bd
000000e0: f5b2 9cbc 733b 82bd ae75 a13d 72c8 a73d
000000f0: 2bcc 3fbd 5289 7fbd 0443 d63c f805 f83c
00000100: 05a2 143d 556f 8cbc a9cf 08bd 8505 a7bc
00000110: d451 a53d 809e 76bd 8851 953d 30b6 07bd
00000120: 18a0 abbd 2a0b 993d 1816 abbd e659 a53d
00000130: d99a 3abc 53fc 383d 12a2 72bd 61d8 1fbd
00000140: ce30 87bd 6bf6 82bd 2c34 7cbb 4c05 6bbb
00000150: b4f8 08bd c53c 023d 6927 a33c 0a0c ac3d
00000160: 5097 8a3d 5072 853d 41c8 a83b 61e3 1e3b
00000170: 9a66 503d eb90 84bd 6c31 f73b c70a abbd
00000180: a473 f63c ac29 ffba 0ae2 553d c96e 16bc
00000190: 4f0d 1abd 67c9 a5bd 1c70 443c ff13 20bd
000001a0: 4592 a3bc a975 093d f279 a2bd c40d b03d
000001b0: d522 6cbd 41ab b0bd 8927 9bbd d9cc 95bd
000001c0: ddcd 89bd 10d8 9a3d ab6f 273d 1467 6b3c
000001d0: cc00 c9bc 1e9f 78bd a144 84bc b0af 933d
000001e0: 3f72 0cbd ea76 703d 2108 ac3c 2c49 50bd
000001f0: 4958 07bd 7816 843d 5191 05bd c775 393d
00000200: 2d2e 883d cb0d b03d 5856 7bbd b032 cabc
00000210: f311 a73c 8e9b 8e3c 805d 75bd b0ea cebc
00000220: 455a 743d 2585 3abd 447b 33bd bcb7 373e
00000230: e9c6 813d 7b78 21b9 6d8e a23d dc87 43bd
00000240: 0edf 703d 7837 2bbd 0f8a 25bd e39d 87bd
00000250: b4e0 363d 68d2 71bd ee3f bb3c 79cb a13c
00000260: c50b 633d e589 13bd c4cb 9abd 8119 1b3d
00000270: b6cc 8d3c 36cf 86bc f234 953c b71e b83d
00000280: 6188 263d a9ee 063d 1511 153d 9822 42bc
00000290: 327c 52bd c363 8f3c e9ba e43d 8c67 29bc
000002a0: 0c8e e83c f38b cebc 199b b43d dfe4 743d
000002b0: de29 a1bd 7de8 dd3c ed99 083c 1cfe 1f3d
000002c0: 36f4 0cbd 6fae 153e cac2 a73d f309 d73c
000002d0: 88c7 d6bc 5234 a5bd 79ec 823d 6a81 9bbd
000002e0: 63a1 593c dd69 753d 687d b13d 178d cdbb
000002f0: 4c35 1a3c 93cd 3c3d 3c23 00bd 63cd 2cbd
00000300: bb9e 31bd 50c9 b3bc d37d 443d 61f3 90bc
00000310: 6c4b 2a3c d131 8cbb 2c22 0d3e c7e1 34bd
00000320: 7873 8bbc 9fca 77bd be8d af3d 3bcd a93a
00000330: 10c4 553d 256e b13c d058 bb3d a683 c03c
00000340: 17be a1bd c2fb 51bd db3d b53d 1207 28bd
00000350: 4771 303d 49b1 44bc 39db 323e f6a6 d8bc
00000360: 6f24 67bd 3af0 69bd 5b64 9d3c 8bd7 803d
00000370: 6329 dd3d 9c14 023d 3d46 f33c 01e7 153c
00000380: bc81 f83a 8f58 373d b997 debc 9690 15bc
00000390: 7109 de3c 21b3 473d 1e8f 913d 831b 7d3a
000003a0: c203 1b3c 6965 403d e02b c03c f796 7cbd
000003b0: fd6a debc 41dc adbd ccbf 7ebc 7fec 983c
000003c0: 03d3 193e 4834 3cbd 8691 133d 1860 47bb
000003d0: 8bf6 2dbd e201 913c 5d91 3cbd 8118 16bd
000003e0: 057d 99bd 1e43 883d a93f be3c e70b 853d
000003f0: e607 b23d 3217 bc3d 2671 0c3d d825 333e
-0.06117942 -0.02845246 0.040636953 -0.08747279 -0.083411425 -0.0016232929 0.06665321 -0.039029013
0.03729641 -0.015241269 0.06647819 -0.0039911573 0.014784712 -0.017307537 0.02196786 -0.021273086
0.013592567 -0.03390994 -0.041835517 -0.07949744 -0.08621799 -0.05427832 0.0779763 0.08815348
-0.08098739 -0.018223079 0.03674413 -0.04695028 0.019849839 -0.0036793156 -0.03550895 -0.010735714
-0.012492206 -0.049541764 0.07696885 0.039243083 0.070815265 0.023235733 -0.06527652 -0.06127355
0.031972278 -0.08122517 -0.00036375507 0.07178004 -0.035107795 0.010134743 -0.08731996 -0.06681703
-0.029134113 0.023287991 -0.018432768 -0.055160653 0.057029776 0.01911513 0.069405675 -0.044318493
-0.019128302 -0.06358995 0.07883774 0.08192529 -0.04682557 -0.06238682 0.026155002 0.030276284
0.036287326 -0.017142931 -0.033401165 -0.020388374 0.08072248 -0.06020975 0.072909415 -0.033132732
-0.08380145 0.074728325 -0.083538234 0.080737874 -0.011389458 0.04516251 -0.059236594 -0.039024714
-0.06601106 -0.06394657 -0.0038483245 -0.0035861311 -0.033440307 0.031796236 0.019916253 0.08400734
0.06767142 0.06515944 0.0051508253 0.0024244415 0.0508791 -0.064729534 0.0075437333 -0.08351665
0.030084439 -0.0019467375 0.05221752 -0.009181687 -0.03761035 -0.08095055 0.01198962 -0.03908157
-0.019967208 0.033559475 -0.079334155 0.085963756 -0.057650406 -0.08626414 -0.075759 -0.07314462
-0.067287184 0.07560742 0.04087798 0.014367837 -0.024536513 -0.06069862 -0.016146006 0.07211244
-0.03428864 0.058707155 0.02099997 -0.050851032 -0.03304318 0.06449598 -0.032609288 0.045278337
0.06649432 0.08596381 -0.06136164 -0.024682373 0.020394301 0.017408159 -0.05990362 -0.025258392
0.0596564 -0.045537133 -0.043818727 0.17941183 0.06336767 -0.00015399039 0.07937322 -0.047736987
0.05880647 -0.041800946 -0.040414866 -0.066219114 0.044647887 -0.05903855 0.022857632 0.019750344
0.055431146 -0.03602018 -0.075583965 0.03786612 0.017309528 -0.016456228 0.018213723 0.089902334
0.040657405 0.032942448 0.036393244 -0.011849068 -0.051387973 0.017503625 0.11168463 -0.010339629
0.028388046 -0.025213217 0.08818645 0.05978858 -0.07869314 0.027088398 0.00833748 0.039060697
-0.034412585 0.14617322 0.0819145 0.026249861 -0.02621819 -0.0806662 0.0639276 -0.07593043
0.0132831065 0.059915412 0.086664975 -0.0062729227 0.009412121 0.04609449 -0.031283602 -0.04218806
-0.043364268 -0.02194658 0.047971558 -0.017694177 0.010393959 -0.0042783995 0.13782567 -0.04416063
-0.017022833 -0.06049597 0.08571957 0.001295484 0.052188933 0.021658966 0.09147799 0.023500275
-0.07897585 -0.051265486 0.088496886 -0.041022368 0.04307678 -0.012005159 0.1746644 -0.0264468
-0.05643123 -0.057113864 0.019212892 0.062911116 0.107989095 0.031757936 0.029696578 0.009149314
0.0018959562 0.04476219 -0.027171956 -0.00912871 0.027104111 0.048754815 0.071073756 0.00096552836
0.009461345 0.046971712 0.023458421 -0.06166741 -0.027150625 -0.08489276 -0.015548658 0.018667458
0.15021901 -0.045948297 0.036027454 -0.0030422267 -0.04247145 0.017701093 -0.046037067 -0.036644462
-0.07494549 0.066534266 0.023223715 0.06496411 0.08692913 0.09184112 0.034287594 0.17494905

net.6.bias f4 [64]
00000000: 6ab8 9a3d c5c4 b73c a42f 8cbd 0a0c 153c
00000010: f919 26bd a8da c63c c6d1 703c 2fb3 7bbd
00000020: a1d6 553d b941 9fbd 9d8b 43bd 285b aabc
00000030: 9a33 993d 3321 86bd 3934 ad3c 2e91 4d3d
00000040: fabe ad3d b762 6b3c 8812 b23d 96b0 d23a
00000050: 47cf 833d 3426 0e3d 488c 8a3c b544 2cbd
00000060: fe75 00bd f671 a2bd ae3c 6d3d 7f48 1cba
00000070: dff5 bfbc c69d a4bd 18af c8bd ed44 13bd
00000080: 9e92 8ebd 42c7 6dbd 5975 613c 78b0 5bbd
00000090: 43bb d0bc 219e 8b3c c425 083d cfec 73bd
000000a0: 0754 9a3d d4b0 0dbd 2eff 963d 4d3d 16bd
000000b0: 1c3f 30bd d173 bb3d 7b5d 333d 3671 2e3d
000000c0: 2b22 9abd 5e63 79bd 7fef bdbd feee 58bd
000000d0: d23a 23bd 1663 a4bd e0d5 78bd ab64 723c
000000e0: 0092 b43d 4ea2 473d 3d24 073d f76b 83bd
000000f0: d033 943d 47c4 4ebc af59 3f3c a9d0 0e3d
0.075547054 0.022432694 -0.06845024 0.009097109 -0.040552113 0.024274185 0.014698451 -0.06145018
0.05220664 -0.077762075 -0.047740567 -0.02079542 0.07480545 -0.06549301 0.021143066 0.050187282
0.084836915 0.014366797 0.08694941 0.0016074355 0.064360194 0.034704402 0.016912594 -0.04205771
-0.031362526 -0.079318926 0.057919197 -0.00059617305 -0.02343267 -0.080379054 -0.097990215 -0.035954405
-0.06961559 -0.058051355 0.013760888 -0.05363509 -0.025479918 0.017043175 0.03323914 -0.05955201
0.07535558 -0.034592465 0.073728904 -0.036679555 -0.043028936 0.091529496 0.04379032 0.042588435
-0.07526048 -0.06088578 -0.09274196 -0.052962296 -0.039851017 -0.08026712 -0.060750842 0.014794509
0.0881691 0.04873877 0.032993544 -0.06417077 0.07236445 -0.012620038 0.011679097 0.034866963

net.8.weight f4 [1, 64]
00000000: 851e 83bd 9f38 0abd 7da4 76bb 28c9 cf3d
00000010: 49ec bebc 3ab5 293d b92a c23d 7bcf e9bd
00000020: 5406 953b 2ef7 dcbc 26be d9bc 8ff3 823d
00000030: 2891 f3bd b05a 9fbd fc7b ccbd 1586 8abd
00000040: f208 e13c 36d3 c23c 9c1e b63d f374 8c3d
00000050: 89e2 b83d 0637 d0bd 272f 20bd e7d7 a33d
00000060: ee35 e7bc 791a d2bd 9f74 8a3d 10a2 b93c
00000070: 2b99 d4bd 1c2d c6bd cfac 583d 6564 96bc
00000080: 3496 b83b d2d3 793c b81f 3c3d a9da 9ebc
00000090: e935 883c 4e16 d93d a86c 71bd f211 363d
000000a0: 5f6e 8cbd 7f64 363c a992 75bc 908d 2d3d
000000b0: 8e58 863d 8bfa 013e 6c73 ff3d 55b3 f03c
000000c0: 83a3 ca3d 2600 d6bd 8d41 e7bc 886a 623c
000000d0: c620 6bbd ee3e 443d b196 90bd a2f9 d03c
000000e0: 10c6 533d dbed 393d 7a18 e13c f9f0 9bbc
000000f0: 266c 1fbb 69d3 c7bd cf6b e83d 8fd6 2c3c
-0.064023055 -0.033745404 -0.0037634664 0.101457894 -0.023306029 0.041432597 0.09480805 -0.11416527
0.0045478735 -0.026973333 -0.026579928 0.06394111 -0.11892921 -0.07780969 -0.09984586 -0.06763855
0.027470086 0.023782354 0.08892557 0.06858244 0.09027583 -0.10166745 -0.039107468 0.080001645
-0.028223958 -0.102589555 0.06760525 0.022660285 -0.10380777 -0.09676573 0.052899178 -0.018358419
0.00563314 0.015248256 0.045928687 -0.019391375 0.016627269 0.105999574 -0.058941513 0.044450708
-0.06856989 0.011132359 -0.01498858 0.042371333 0.06559859 0.12693231 0.12473187 0.029382387
0.09894469 -0.10449247 -0.0282295 0.013819344 -0.057404302 0.047911577 -0.07059992 0.02550966
0.05170256 0.045392852 0.027477492 -0.019035803 -0.0024325936 -0.0975712 0.11348688 0.010549202
